model/keypoint_classifier/keypoint_classifier.tflite (tflite, 6528 bytes, 6 tensors)

sequential_1/dense_5/BiasAdd/ReadVariableOp f4 [3]
00000000: 625b 67be 87c8 56bd 474b 5a3e
-0.22593454 -0.05243733 0.21317779

sequential_1/dense_4/BiasAdd/ReadVariableOp f4 [10]
00000000: c37b e63e e20f 593e b9d5 35be a04f 86bd
00000010: 751e 093f ed9e 84bc f916 dd3d e1b4 ac3d
00000020: 5c1f 193f 2556 a13c
0.45016298 0.21197465 -0.1775731 -0.06558156 0.535621 -0.016189063 0.10795397 0.084329374
0.59813476 0.019694397

sequential_1/dense_3/BiasAdd/ReadVariableOp f4 [20]
00000000: efa3 3fbf d718 33bf de0f 88be 69df abbe
00000010: 09c5 a9be bb4e c1be d7d8 2ebf 5bda 24bf
00000020: aa2d eabe 5a1e ccbe 91a3 91be 9580 81be
00000030: eb97 0ebf 9235 b4be 702f 04bf 981a 2fbf
00000040: 457f e6be 3115 15bf 8d40 d0be cbd2 91be
-0.7485952 -0.6995978 -0.26574606 -0.33568886 -0.33158138 -0.3775538 -0.6829962 -0.64395684
-0.45737964 -0.39866906 -0.28445104 -0.25293413 -0.5570056 -0.3519712 -0.51634884 -0.68399954
-0.45018974 -0.5823546 -0.40674248 -0.28481135

sequential_1/dense_3/MatMul f4 [20, 42]
00000000: 6644 893e d4bf 6f3e c32e e8be 649f a4be
00000010: 6ac1 843d 4ca5 0dbf 618e 39be b102 6fbe
00000020: 4a47 93be 7ee5 edbe 58f2 1dbe a0dc a7bd
00000030: bad4 24bd 381e f5b9 7207 383d 86f6 193e
00000040: 256e d73d 7da4 303e 63b7 01be 0137 42bd
00000050: f4a6 6c3d 6a56 3dbe a200 cf3d 27e9 c63c
00000060: 5dac 0bbe ec97 243e ec08 24bd efc3 ac3c
00000070: 9820 e13d 5d91 99be d467 3e3d 898d 923d
00000080: 4050 b2bd 2a0e 193e 0d3d a3bd 9f44 d4bc
00000090: 8efe 1a3e fbff 88be 1f70 043c 2dd0 91bd
000000a0: 4e02 a4bd d0d0 893d d0cc 973e 56cb 8e3e
000000b0: 7368 083f dc06 eabe 4d8e a23e 77ad 8bbe
000000c0: 5994 df3e 7666 e1be 0f1e 213e ac32 22be
000000d0: 557c 663e bf8b c0bd 6706 173d 3318 e1bc
000000e0: d795 7bbe be9a ee3d bbe1 8dbe 11e0 183e
000000f0: 7a34 ad3e f044 e6bd bc5b 7abd b8d3 70bd
00000100: 92c5 433c 5d36 593d facb 19bd 4c7e ce3d
00000110: ec01 903e f7c8 d3bd 6e44 2a3e 5b81 12be
00000120: 32bc a73c d4cc a73d 69aa 6ebd 1d37 113e
00000130: de26 143e 1854 99be 4ce3 bb3d cd23 8abd
00000140: 50d0 be3d df5a 30bc 96e9 d83c dc78 133d
00000150: 6824 34bd ac2c 993e 7fea 293d 0f5a 523e
00000160: c2cf 323d 3df8 113e 3e4d d23d 8a57 003e
00000170: 9490 223e e1b5 e93d 5b08 afbd 683b 7cbd
00000180: 2a8b b4bd 254c 21bc 33ea a6be 87fd aebd
00000190: e7fe c0be f5c3 1cbf b41a 90bd ee5a dfbd
000001a0: 1bb7 c4bb 3fc2 8c3d b44f 723e 7459 e63d
000001b0: 111d 8c3e 2ca8 b03d d0eb 80bc 6148 16bd
000001c0: babc 36bc 3539 2e3d b238 613d a313 033e
000001d0: 7ca6 ff3d 4be3 a23d e68e 59bd 3f2f 943c
000001e0: dfe2 20bd 160d 803d eb10 493d 8921 0c3e
000001f0: 551f 1d3e 139d 8c3c bfb2 34be d01a bbbd
00000200: 9a3f fc3c 0c0a 5c3c 34c4 c03c 35aa 4d3e
00000210: d821 cbbd ebf7 283e 804a d4bd 1cc0 833e
00000220: 3f33 763e 3875 8e3d 8409 803c 7fc3 393d
00000230: 0ab4 f7bd f3f9 de3c bf5c 2abe 8bda 8cbd
00000240: 03f3 ed3d 5d12 a63d fb38 a3bc 59dc a63d
00000250: 1043 613e 04cb 58be 4e3e b53d 1d64 10bf
00000260: 8f5e b73d 3a4a 0b3e 597f 453b afdc ff3d
00000270: df03 823e 7f8c e9bd bdfa 323f 3aaf 34bf
00000280: 9022 cc3d 256e 683e 7485 27be 57f0 ff3d
00000290: 8c98 d0bd de42 05bd 8d68 79bd 66c3 aabe
000002a0: 981f 9c3e 864c 903e 9357 40be f950 3fbd
000002b0: e23e 9ebe 926c 6b3d b393 1f3b 8f47 b63d
000002c0: db2d c33e da01 873d 72fa 91be a812 04bf
000002d0: 45c7 44be d71f edbd 5892 81bd b3c9 64bd
000002e0: 9ad2 3d3e 2e18 87bd ca41 9ebe 738f 0ebf
000002f0: b2db 24bd 4c31 de3d 1cd5 773d 037b 363e
00000300: 17e5 2b3d 3e06 043e cb90 093d 511b 0bbf
00000310: 141c f03b f6fb 4f3d bb66 22ba 2f7a 4a3e
00000320: b807 67bd 337d 133e 3ec9 213e 44e1 1dbf
00000330: 3b0b dc3d 71a1 fdbd a360 843d 8d65 6c3e
00000340: 3c10 7dbd 508e 673e 4abb 043e 188f 73bd
00000350: 5ca2 f7bd c021 943c 620a d8bd e3ed 3abe
00000360: f86c 30be a3c4 a8be c5be 2abe 79f6 5fbe
00000370: ad68 42bd 03a7 493e 69df 17bd 2c61 f1bd
00000380: 68a5 20bd c1bd a6bc e266 d8bd e6ab 0ebe
00000390: 647b 0bbe e618 913e 66a4 87bd 22b4 81bd
000003a0: 9b83 833e b3b5 643e e459 d33e a18e 043f
000003b0: d53d 31be ae91 093e aa09 94bc 2a0b 40be
000003c0: a701 71bd e3b1 843e f367 de3e e1c4 dd3e
000003d0: 3557 cfbd fea8 553d fc73 91bd c21e 4ebe
000003e0: 522c 823e fd22 7c3e fa72 bc3d 83d2 cf3e
000003f0: 0062 aeba 649a 1dbe ab29 cdbe bcdf 49be
0.26809996 0.2341302 -0.45348176 -0.32152855 0.06482203 -0.5533035 -0.1812072 -0.2334087
-0.28765327 -0.4646415 -0.15424478 -0.08196378 -0.040241934 -0.00046752556 0.044928975 0.15035447
0.10519055 0.17250247 -0.12667613 -0.047415737 0.057776406 -0.18489996 0.101075426 0.024281098
-0.1363997 0.16073579 -0.04004757 0.021089522 0.10992545 -0.29993716 0.046485737 0.07155902
-0.08706713 0.1494681 -0.07970629 -0.025911627 0.15136167 -0.26757798 0.008083372 -0.071197845
-0.08008252 0.06729281 0.29648447 0.27889508 0.53284377 -0.45708358 0.31749192 -0.2728078
0.43667868 -0.44023484 0.15734123 -0.15839642 0.22508366 -0.094016545 0.03687134 -0.02747736
-0.24568878 0.116506085 -0.2771128 0.14929225 0.338291 -0.112436175 -0.06112264 -0.05879566
0.01194896 0.05303036 -0.037548043 0.10082683 0.28126466 -0.103410654 0.16627666 -0.14307158
0.02047548 0.08193365 -0.058267985 0.1418118 0.14467952 -0.2994697 0.09174213 -0.0674511
0.09317076 -0.010763853 0.02647857 0.036003932 -0.043980032 0.29916894 0.0414834 0.20542167
0.043655165 0.14254852 0.10268639 0.12533394 0.15875465 0.11411644 -0.085465156 -0.06158009
-0.08815606 -0.009844814 -0.32600555 -0.0854445 -0.37694475 -0.61236507 -0.07036343 -0.10906015
-0.006003273 0.06872987 0.23663217 0.112475306 0.27365926 0.08625826 -0.015737444 -0.03669012
-0.011153394 0.042535026 0.05498571 0.1280046 0.12482926 0.07953509 -0.053114794 0.018088935
-0.03927886 0.06252496 0.0490884 0.13684668 0.15343983 0.017164743 -0.17646311 -0.091359735
0.030792046 0.01343013 0.023531057 0.2008446 -0.099185646 0.16500823 -0.10365772 0.25732505
0.24042986 0.069559515 0.015629537 0.045352455 -0.120948866 0.027218794 -0.16636942 -0.06877621
0.116186164 0.08108971 -0.019924631 0.08147497 0.21998239 -0.21171194 0.08849774 -0.5640276
0.089535825 0.13602534 0.003013572 0.12493264 0.25393578 -0.11403751 0.69913846 -0.70579875
0.0996753 0.22698267 -0.16359502 0.12497013 -0.10185346 -0.032534473 -0.060890723 -0.33352202
0.30492854 0.28183383 -0.18783407 -0.04670808 -0.3090735 0.057476588 0.002434951 0.089003675
0.38120922 0.0659215 -0.28511387 -0.5159097 -0.1921664 -0.115783386 -0.06326741 -0.055856418
0.1853737 -0.06596409 -0.30909568 -0.55687636 -0.04024858 0.108492464 0.06050597 0.17820363
0.041966524 0.12893006 0.03358535 -0.54338557 0.007327566 0.050777398 -0.00061951176 0.19773172
-0.056403846 0.14403228 0.15799424 -0.61671853 0.107443295 -0.12384308 0.064637445 0.23085614
-0.06178306 0.22612882 0.1296207 -0.059462637 -0.120915145 0.0180825 -0.10548855 -0.18254809
-0.17229068 -0.32962522 -0.16674335 -0.21871366 -0.047463108 0.19692616 -0.037078295 -0.11786112
-0.039220244 -0.020354154 -0.10566498 -0.13932762 -0.13621289 0.28339309 -0.066231534 -0.06333186
0.25686345 0.22334938 0.4127952 0.51780134 -0.17308743 0.13434479 -0.018071014 -0.18754259
-0.058839466 0.25916967 0.43438682 0.4331427 -0.10124055 0.052163117 -0.071022004 -0.2012892
0.2542444 0.24622722 0.092016175 0.40590295 -0.0013304353 -0.15390927 -0.40070853 -0.19714254

sequential_1/dense_4/MatMul f4 [10, 20]
00000000: 3664 b6bb 7465 6bbd e36f 713d 3aae dabe
00000010: 4715 293f 8106 693e f28c 883d 75d5 23be
00000020: 5b3e 0cbe b349 00bf 4d7f ae3d 2310 93be
00000030: 6d9f ba3e 729d 12bf 2c4d 493f 3a89 5a3e
00000040: bd37 43be c8ec d7bd 468b bdbe b421 ac3e
00000050: 1302 473f 8765 743f 4a64 0fbf ce2e 90bc
00000060: de45 063f 15e6 75be 22d9 3f3f 2f61 483e
00000070: 205c a13d b448 9dbd 44a9 1f3d 42cf 24be
00000080: a62f 3d3f c702 09bb 0f47 d93e e63a a03e
00000090: 6778 933e 1f7c 1d3f e22c 8e3e ee44 23bf
000000a0: 5938 49be ddda 07bf 455c 32be 7918 b23c
000000b0: 795e e9bd 83fa 3bbc 612b 82bf 7f99 b0bc
000000c0: 17ea 223d aac0 4d3e 86f1 5e3d f19f 60bd
000000d0: 8400 bebe 5201 30bd f71a 353f 4705 02be
000000e0: 5076 b03c 3cda 653f 269a 403e e249 713e
000000f0: 4e9f 753e 8fc0 e93e e36e 993d 26f6 d0bd
00000100: 784f ae3d 6140 eebe 855b 9d3e cf26 0ebf
00000110: c9ab 693f 1e52 e83e ee42 8cbe 2cd7 f93e
00000120: 5ea5 0b3e 5b0d 093f b201 fc3d 3f55 0b3f
00000130: ad06 ed3e 5af8 993d b374 5c3f 4a8c 34bb
00000140: 0d7a 00bf 7910 dabe 86ce de3e 00a1 44bf
00000150: 6f4e 8a3e a904 8abe cc0d 85bd 29ee cbbe
00000160: 84a7 afbe 9945 f2be 7e2f bb3d eed6 34be
00000170: 1832 233f 5ce7 97be 1b40 b13e a63e 003e
00000180: f59f 24bf 03a1 aabe 3073 12bf 15ab b13d
00000190: 2747 9ebd 34a0 97be 3a31 c03d e347 c1bc
000001a0: 21c2 49bb 245c 073f c527 c6bd 849a 673d
000001b0: e442 c13e a487 5bbf c00a 123f 3576 fcbe
000001c0: 2566 3bbe fc85 763e e6bd 03be 8804 18be
000001d0: 75d5 db3e 9d61 0fbe 7bfa fe3e ff3d e73d
000001e0: a684 9ebe eae7 aabe 4858 b7bd 2195 d4be
000001f0: 0abc b83e 558d fb3e 975c 0ebe 3e9f 0bbf
00000200: 1888 5c3e 14cf 183f 2b08 143e 9f20 a83e
00000210: 9453 1dbd fb2c 9e3e dda7 fd3d 28bf 8cbe
00000220: 9696 0abf 90b4 7dbe b7f7 b8be dfee 153d
00000230: 8c77 4bbe 3a2e abbc 44b3 10be c538 a83e
00000240: b819 b5bc ae28 743e 1b04 83be 3ee8 cc3e
00000250: def8 043d fbfb cf3e 2ce2 293f 905c 0f3f
00000260: 7b11 4cbc a6b7 3d3f 1890 7bbe 8333 ed3e
00000270: 771f 203f 0f0c 19be 6add b83e e2bf 2b3e
00000280: 4eef 11be 5b05 f1bd 456d 173f f317 71bf
00000290: ed05 a53d a5fe d9be 6601 0dbe 0648 b7be
000002a0: 933f 64bf e13a 76bf fa50 e5be 2702 49bf
000002b0: 2627 313d 6c4e 45bf ecb5 22bc be05 48be
000002c0: aa68 3dbf 3460 a7ba 4914 dcbe 1793 5c3f
000002d0: 72bc 58bd 7b41 02bd 8b20 573d ec61 d63e
000002e0: 23f5 513c 78b5 1c3f dbb7 66be 6a6a eb3d
000002f0: ad5e 343f 1132 003f 7c57 19bf 0e30 1dbf
00000300: c725 0cbd 5215 31bf 0070 0fbe b4dc 013e
00000310: 110a 52bd 1971 f2bd 3ce6 c43e b47b 8c3e
-0.0055661453 -0.0574698 0.058944594 -0.4271105 0.6604809 0.22756387 0.06667508 -0.15999396
-0.13695662 -0.50112456 0.085203744 -0.2872325 0.36449757 -0.5727149 0.7863338 0.2134141
-0.19064231 -0.10543209 -0.3702032 0.33619463 0.7773754 0.9546742 -0.56012404 -0.017600443
0.5245036 -0.2401355 0.74940693 0.19568323 0.078788996 -0.07679883 0.038979784 -0.16094688
0.7390083 -0.0020906196 0.42437026 0.31294936 0.28802797 0.6151752 0.27768618 -0.63777053
-0.19650401 -0.53068334 -0.1741801 0.021740185 -0.11394972 -0.011473301 -1.0169488 -0.021557568
0.039774027 0.20093027 0.054429553 -0.054840032 -0.37109768 -0.04297001 0.7074427 -0.12697326
0.02154079 0.89786124 0.18808803 0.2356334 0.23986551 0.45654723 0.07491853 -0.10203199
0.08511251 -0.46533492 0.30733886 -0.5552797 0.9127775 0.4537515 -0.27394813 0.48796976
0.13637301 0.53536004 0.12305011 0.5442695 0.46294156 0.075180724 0.8611557 -0.002754944
-0.50186235 -0.42590693 0.4351694 -0.76808167 0.27012965 -0.2695668 -0.06496772 -0.3983014
-0.34307492 -0.47318724 0.09139918 -0.17660114 0.6374831 -0.296687 0.3461922 0.12523898
-0.64306575 -0.33325967 -0.5720701 0.086752094 -0.07728415 -0.29614413 0.09384389 -0.023593849
-0.0030785876 0.5287497 -0.09675554 0.056543842 0.37746346 -0.85753846 0.57047653 -0.49308935
-0.18300684 0.24074548 -0.1286541 -0.14845479 0.42936292 -0.1400208 0.49800476 0.11291122
-0.30960578 -0.3338006 -0.08952385 -0.41520026 0.36080962 0.49131265 -0.13902508 -0.5453986
0.2153629 0.59690976 0.14456241 0.32837388 -0.038409784 0.30893692 0.12385533 -0.2748959
-0.54136026 -0.2477591 -0.3612649 0.03660476 -0.19869822 -0.020896066 -0.14130884 0.32855812
-0.02210699 0.23843643 -0.2558907 0.40020937 0.0324639 0.40621933 0.66360736 0.56000614
-0.01245534 0.7410835 -0.24566686 0.46328363 0.6254801 -0.14946006 0.36106426 0.16772416
-0.14251444 -0.117685996 0.5915111 -0.9417717 0.08057771 -0.4257709 -0.13770065 -0.35797137
-0.89159507 -0.9618359 -0.44788343 -0.7851891 0.043250225 -0.7707279 -0.009931069 -0.1953344
-0.7398783 -0.001276976 -0.42984226 0.8616194 -0.05291409 -0.03180073 0.05252127 0.41871583
0.012814793 0.612144 -0.22531073 0.11494906 0.70456964 0.50076395 -0.59899116 -0.6140145
-0.034215715 -0.6917316 -0.14007568 0.12681848 -0.05127913 -0.11837978 0.38456905 0.27438128

sequential_1/dense_5/MatMul f4 [3, 10]
00000000: 954c e9be 7f0f a2bf e0a8 6cbf 27c7 323f
00000010: 2d9f 0dbf d164 8d3f 9086 f73e 310c 683f
00000020: 1578 173e b94b 7f3f 3c57 983e e8e3 213f
00000030: fc6c 603f e698 153f f69e 75be 58cf 05bf
00000040: 6073 84bf 6eab 8dbe 8761 22bf 9ed3 edbe
00000050: 465c 263f 9238 4abf a72f eabe 830d c6be
00000060: 142f 0b3f 1f3c 0ebf 9ea7 dcbd e208 50bf
00000070: 9ae6 ca3f 8732 86bf
-0.4556624 -1.2660979 -0.9244518 0.6983513 -0.5532101 1.1046392 0.4834485 0.906436
0.14791901 0.9972492 0.29754055 0.6323838 0.87666297 0.5843643 -0.2398642 -0.52269506
-1.034771 -0.27669853 -0.63430065 -0.46450514 0.6498455 -0.7899257 -0.4573948 -0.38682184
0.5436871 -0.5556049 -0.10774158 -0.81263554 1.5851624 -1.048417
